…
given NumPy array is not writeable, and PyTorch does not support non-writeable tensors. This means you can write to the underlying (supposedly non-writeable) NumPy array using the tensor. You may want to copy the array to protect its data or make it writeable before converting it to a tensor. This type of warning will be suppressed for the rest of this program. (Triggered internally at  ../torch/csrc/utils/tensor_numpy.cpp:180.)
  return torch.from_numpy(parsed.astype(m[2], copy=False)).view(*s)
Training simple VAE
Training --> SimpleVae(
  (_encoder): Encoder(
    (_net): Sequential(
      (0): Linear(in_features=784, out_features=392, bias=True)
      (1): LeakyReLU(negative_slope=0.01)
      (2): Linear(in_features=392, out_features=392, bias=True)
      (3): LeakyReLU(negative_slope=0.01)
      (4): Linear(in_features=392, out_features=196, bias=True)
      (5): LeakyReLU(negative_slope=0.01)
      (6): Linear(in_features=196, out_features=98, bias=True)
    )
    (_fc_mean): Sequential(
      (0): Linear(in_features=98, out_features=4, bias=True)
    )
    (_fc_log_var): Sequential(
      (0): Linear(in_features=98, out_features=4, bias=True)
    )
  )
  (_decoder): Decoder(
    (_net): Sequential(
      (0): Linear(in_features=4, out_features=196, bias=True)
      (1): LeakyReLU(negative_slope=0.01)
      (2): Linear(in_features=196, out_features=392, bias=True)
      (3): LeakyReLU(negative_slope=0.01)
      (4): Linear(in_features=392, out_features=392, bias=True)
      (5): LeakyReLU(negative_slope=0.01)
      (6): Linear(in_features=392, out_features=784, bias=True)
      (7): Sigmoid()
    )
  )
)
====> Train Loss = 5201564.7 Epoch = 1
====> Train Loss = 5145811.8 Epoch = 2
====> Train Loss = 5074292.0 Epoch = 3
====> Train Loss = 4971128.75 Epoch = 4
====> Train Loss = 4817984.15 Epoch = 5
====>  Test Loss = 4887583.5
====> Train Loss = 4590601.6 Epoch = 6
====> Train Loss = 4251912.55 Epoch = 7
====> Train Loss = 3758323.5 Epoch = 8
…
