…
Downloading http://yann.lecun.com/exdb/mnist/t10k-images-idx3-ubyte.gz to /home/joy/midi_features/MNIST/raw/t10k-images-idx3-ubyte.gz
Extracting /home/joy/midi_features/MNIST/raw/t10k-images-idx3-ubyte.gz to /home/joy/midi_features/MNIST/raw
Downloading http://yann.lecun.com/exdb/mnist/t10k-labels-idx1-ubyte.gz
Downloading http://yann.lecun.com/exdb/mnist/t10k-labels-idx1-ubyte.gz to /home/joy/midi_features/MNIST/raw/t10k-labels-idx1-ubyte.gz
Extracting /home/joy/midi_features/MNIST/raw/t10k-labels-idx1-ubyte.gz to /home/joy/midi_features/MNIST/raw
Training --> GMIWVae(
  (_encoder): Encoder(
    (_net): Sequential(
      (0): Linear(in_features=784, out_features=392, bias=True)
      (1): ReLU()
      (2): Linear(in_features=392, out_features=196, bias=True)
      (3): Tanh()
      (4): Dropout(p=0.5, inplace=False)
      (5): Linear(in_features=196, out_features=196, bias=True)
      (6): ReLU()
      (7): Linear(in_features=196, out_features=98, bias=True)
    )
    (_fc_mean): Sequential(
      (0): Linear(in_features=98, out_features=20, bias=True)
    )
    (_fc_log_var): Sequential(
      (0): Linear(in_features=98, out_features=20, bias=True)
    )
  )
  (_decoder): Decoder(
    (_net): Sequential(
      (0): Linear(in_features=20, out_features=196, bias=True)
      (1): ReLU()
      (2): Linear(in_features=196, out_features=392, bias=True)
      (3): Tanh()
      (4): Linear(in_features=392, out_features=196, bias=True)
      (5): ReLU()
      (6): Linear(in_features=196, out_features=784, bias=True)
      (7): Tanh()
    )
  )
)
/pytorch/aten/src/ATen/native/cuda/Loss.cu:115: operator(): block: [156,0,0], thread: [0,0,0] Assertion `input_val >= zero && input_val <= one` failed.
/pytorch/aten/src/ATen/native/cuda/Loss.cu:115: operator(): block: [156,0,0], thread: [4,0,0] Assertion `input_val >= zero && input_val <= one` failed.
/pytorch/aten/src/ATen/native/cuda/Loss.cu:115: operator(): block: [156,0,0], thread: [5,0,0] Assertion `input_val >= zero && input_val <= one` failed.
…
