…
/home/joy/.venv/lib/python3.8/site-packages/torchvision/datasets/mnist.py:498: UserWarning: The given NumPy array is not writeable, and PyTorch does not support non-writeable tensors. This means you can write to the underlying (supposedly non-writeable) NumPy array using the tensor. You may want to copy the array to protect its data or make it writeable before converting it to a tensor. This type of warning will be suppressed for the rest of this program. (Triggered internally at  ../torch/csrc/utils/tensor_numpy.cpp:180.)
  return torch.from_numpy(parsed.astype(m[2], copy=False)).view(*s)
Training --> SimpleVae(
  (_encoder): Encoder(
    (_net): Sequential(
      (0): Linear(in_features=784, out_features=392, bias=True)
      (1): LeakyReLU(negative_slope=0.01)
      (2): Linear(in_features=392, out_features=392, bias=True)
      (3): LeakyReLU(negative_slope=0.01)
      (4): Linear(in_features=392, out_features=196, bias=True)
      (5): LeakyReLU(negative_slope=0.01)
      (6): Linear(in_features=196, out_features=98, bias=True)
    )
    (_fc_mean): Sequential(
      (0): Linear(in_features=98, out_features=4, bias=True)
    )
    (_fc_log_var): Sequential(
      (0): Linear(in_features=98, out_features=4, bias=True)
    )
  )
  (_decoder): Decoder(
    (_net): Sequential(
      (0): Linear(in_features=4, out_features=196, bias=True)
      (1): LeakyReLU(negative_slope=0.01)
      (2): Linear(in_features=196, out_features=392, bias=True)
      (3): LeakyReLU(negative_slope=0.01)
      (4): Linear(in_features=392, out_features=392, bias=True)
      (5): LeakyReLU(negative_slope=0.01)
      (6): Linear(in_features=392, out_features=784, bias=True)
      (7): Sigmoid()
    )
  )
)
====> Train Loss = -5227737.4 Epoch = 1
====> Train Loss = -5275653.9 Epoch = 2
====> Train Loss = -5341872.3 Epoch = 3
====> Train Loss = -5444821.4 Epoch = 4
====> Train Loss = -5619648.3 Epoch = 5
====>  Test Loss = -6016991.5
====> Train Loss = -5924613.4 Epoch = 6
====> Train Loss = -6520884.7 Epoch = 7
====> Train Loss = -7877762.5 Epoch = 8
…
