…
/home/joy/.venv/lib/python3.8/site-packages/torchvision/datasets/mnist.py:498: UserWarning: The given NumPy array is not writeable, and PyTorch does not support non-writeable tensors. This means you can write to the underlying (supposedly non-writeable) NumPy array using the tensor. You may want to copy the array to protect its data or make it writeable before converting it to a tensor. This type of warning will be suppressed for the rest of this program. (Triggered internally at  ../torch/csrc/utils/tensor_numpy.cpp:180.)
  return torch.from_numpy(parsed.astype(m[2], copy=False)).view(*s)
Training --> SimpleVae(
  (_encoder): Encoder(
    (_net): Sequential(
      (0): Linear(in_features=784, out_features=392, bias=True)
      (1): LeakyReLU(negative_slope=0.01)
      (2): Linear(in_features=392, out_features=392, bias=True)
      (3): LeakyReLU(negative_slope=0.01)
      (4): Linear(in_features=392, out_features=196, bias=True)
      (5): LeakyReLU(negative_slope=0.01)
      (6): Linear(in_features=196, out_features=98, bias=True)
    )
    (_fc_mean): Sequential(
      (0): Linear(in_features=98, out_features=4, bias=True)
    )
    (_fc_log_var): Sequential(
      (0): Linear(in_features=98, out_features=4, bias=True)
    )
  )
  (_decoder): Decoder(
    (_net): Sequential(
      (0): Linear(in_features=4, out_features=196, bias=True)
      (1): LeakyReLU(negative_slope=0.01)
      (2): Linear(in_features=196, out_features=392, bias=True)
      (3): LeakyReLU(negative_slope=0.01)
      (4): Linear(in_features=392, out_features=392, bias=True)
      (5): LeakyReLU(negative_slope=0.01)
      (6): Linear(in_features=392, out_features=784, bias=True)
      (7): Sigmoid()
    )
  )
)
====> Train Loss = 10096.2833984375 Epoch = 1
====> Train Loss = 4931.6439453125 Epoch = 2
====> Train Loss = 2005.5330078125 Epoch = 3
====> Train Loss = 925.6601928710937 Epoch = 4
====> Train Loss = 726.4372802734375 Epoch = 5
====>  Test Loss = 619.8880004882812
Rand z -> tensor([ 0.2885, -0.7067, -0.7090, -1.0797], device='cuda:0')
…
