
Training GMVAE
Training --> GMIWVae(
  (_encoder): Encoder(
    (_net): Sequential(
      (0): Linear(in_features=784, out_features=392, bias=True)
      (1): ReLU()
      (2): Linear(in_features=392, out_features=196, bias=True)
      (3): Tanh()
      (4): Dropout(p=0.5, inplace=False)
      (5): Linear(in_features=196, out_features=196, bias=True)
      (6): ReLU()
      (7): Linear(in_features=196, out_features=98, bias=True)
    )
    (_fc_mean): Sequential(
      (0): Linear(in_features=98, out_features=20, bias=True)
    )
    (_fc_log_var): Sequential(
      (0): Linear(in_features=98, out_features=20, bias=True)
    )
  )
  (_decoder): Decoder(
    (_net): Sequential(
      (0): Linear(in_features=20, out_features=196, bias=True)
      (1): ReLU()
      (2): Linear(in_features=196, out_features=392, bias=True)
      (3): Tanh()
      (4): Linear(in_features=392, out_features=196, bias=True)
      (5): ReLU()
      (6): Linear(in_features=196, out_features=784, bias=True)
      (7): Sigmoid()
    )
  )
)
====> Train Loss = -152454.1237541287 Epoch = 1
====> Train Loss = -769507.0890666667 Epoch = 2
====> Train Loss = -768677.8133333334 Epoch = 3
====> Train Loss = -768742.4256 Epoch = 4
====> Train Loss = -769165.4485333334 Epoch = 5
====> Train Loss = -769702.8970666666 Epoch = 6
====> Train Loss = -770097.0986666667 Epoch = 7
…
