…
  File "/home/joy/.local/share/JetBrains/Toolbox/apps/PyCharm-P/ch-0/212.5457.59/plugins/python/helpers/pydev/_pydev_imps/_pydev_execfile.py", line 18, in execfile
    exec(compile(contents+"\n", file, 'exec'), glob, loc)
  File "/home/joy/projects/music-controllable-diffusion/models/gmiw_vae/gmiw_vae.py", line 145, in <module>
    model.fit(epoch, _optimizer)
  File "/home/joy/projects/music-controllable-diffusion/models/base/base_model.py", line 102, in fit
    loss.backward()
AttributeError: 'tuple' object has no attribute 'backward'
Training --> GMIWVae(
  (_encoder): Encoder(
    (_net): Sequential(
      (0): Linear(in_features=784, out_features=392, bias=True)
      (1): ReLU()
      (2): Linear(in_features=392, out_features=196, bias=True)
      (3): Tanh()
      (4): Linear(in_features=196, out_features=196, bias=True)
      (5): ReLU()
      (6): Linear(in_features=196, out_features=98, bias=True)
    )
    (_fc_mean): Sequential(
      (0): Linear(in_features=98, out_features=20, bias=True)
    )
    (_fc_log_var): Sequential(
      (0): Linear(in_features=98, out_features=20, bias=True)
    )
  )
  (_decoder): Decoder(
    (_net): Sequential(
      (0): Linear(in_features=20, out_features=196, bias=True)
      (1): ReLU()
      (2): Linear(in_features=196, out_features=392, bias=True)
      (3): Tanh()
      (4): Linear(in_features=392, out_features=392, bias=True)
      (5): ReLU()
      (6): Linear(in_features=392, out_features=784, bias=True)
      (7): Sigmoid()
    )
  )
