
Training GMVAE
Training --> GMIWVae(
  (_encoder): Encoder(
    (_net): Sequential(
      (0): Linear(in_features=784, out_features=392, bias=True)
      (1): ReLU()
      (2): Linear(in_features=392, out_features=196, bias=True)
      (3): Tanh()
      (4): Dropout(p=0.5, inplace=False)
      (5): Linear(in_features=196, out_features=196, bias=True)
      (6): ReLU()
      (7): Linear(in_features=196, out_features=98, bias=True)
    )
    (_fc_mean): Sequential(
      (0): Linear(in_features=98, out_features=20, bias=True)
    )
    (_fc_log_var): Sequential(
      (0): Linear(in_features=98, out_features=20, bias=True)
    )
  )
  (_decoder): Decoder(
    (_net): Sequential(
      (0): Linear(in_features=20, out_features=196, bias=True)
      (1): ReLU()
      (2): Linear(in_features=196, out_features=392, bias=True)
      (3): Tanh()
      (4): Linear(in_features=392, out_features=196, bias=True)
      (5): ReLU()
      (6): Linear(in_features=196, out_features=784, bias=True)
      (7): Sigmoid()
    )
  )
)
Python 3.8.10 (default, Sep 28 2021, 16:10:42)
Type 'copyright', 'credits' or 'license' for more information
IPython 7.27.0 -- An enhanced Interactive Python. Type '?' for help.
PyDev console: using IPython 7.27.0
Out[1]: tensor(0.4209, device='cuda:0', grad_fn=<MinBackward1>)
Out[2]: tensor(0.5742, device='cuda:0', grad_fn=<MaxBackward1>)
…
