…
  File "/home/joy/projects/music-controllable-diffusion/models/gmiw_vae/gmiw_vae.py", line 106, in step
    loss = self.forward(batch)
  File "/home/joy/projects/music-controllable-diffusion/models/gmiw_vae/gmiw_vae.py", line 102, in forward
    niwae, kl, rec = self.negative_iwae_bound(x, iw=100)
  File "/home/joy/projects/music-controllable-diffusion/models/gmiw_vae/gmiw_vae.py", line 84, in negative_iwae_bound
    reconstruction_loss = func.mse_loss(x_hat, x.view(-1, MAX_MIDI_ENCODING_ROWS * 8), reduction='sum')
RuntimeError: shape '[-1, 12800]' is invalid for input of size 100352
Training --> GMIWVae(
  (_encoder): Encoder(
    (_net): Sequential(
      (0): Linear(in_features=784, out_features=392, bias=True)
      (1): ReLU()
      (2): Linear(in_features=392, out_features=196, bias=True)
      (3): Tanh()
      (4): Linear(in_features=196, out_features=196, bias=True)
      (5): ReLU()
      (6): Linear(in_features=196, out_features=98, bias=True)
    )
    (_fc_mean): Sequential(
      (0): Linear(in_features=98, out_features=20, bias=True)
    )
    (_fc_log_var): Sequential(
      (0): Linear(in_features=98, out_features=20, bias=True)
    )
  )
  (_decoder): Decoder(
    (_net): Sequential(
      (0): Linear(in_features=20, out_features=196, bias=True)
      (1): ReLU()
      (2): Linear(in_features=196, out_features=392, bias=True)
      (3): Tanh()
      (4): Linear(in_features=392, out_features=392, bias=True)
      (5): ReLU()
      (6): Linear(in_features=392, out_features=784, bias=True)
      (7): Sigmoid()
    )
  )
)
Python 3.8.10 (default, Sep 28 2021, 16:10:42)
Type 'copyright', 'credits' or 'license' for more information
IPython 7.27.0 -- An enhanced Interactive Python. Type '?' for help.
PyDev console: using IPython 7.27.0
