
Training GMVAE
Training --> GMIWVae(
  (_encoder): Encoder(
    (_net): Sequential(
      (0): Linear(in_features=784, out_features=392, bias=True)
      (1): ReLU()
      (2): Linear(in_features=392, out_features=196, bias=True)
      (3): Tanh()
      (4): Linear(in_features=196, out_features=196, bias=True)
      (5): ReLU()
      (6): Linear(in_features=196, out_features=98, bias=True)
    )
    (_fc_mean): Sequential(
      (0): Linear(in_features=98, out_features=20, bias=True)
    )
    (_fc_log_var): Sequential(
      (0): Linear(in_features=98, out_features=20, bias=True)
    )
  )
  (_decoder): Decoder(
    (_net): Sequential(
      (0): Linear(in_features=20, out_features=196, bias=True)
      (1): ReLU()
      (2): Linear(in_features=196, out_features=392, bias=True)
      (3): Tanh()
      (4): Linear(in_features=392, out_features=392, bias=True)
      (5): ReLU()
      (6): Linear(in_features=392, out_features=784, bias=True)
      (7): Sigmoid()
    )
  )
)
====> Train Loss = -63.258924843692284 Epoch = 1
====> Train Loss = -67.96776110839843 Epoch = 2
====> Train Loss = -67.97153153076172 Epoch = 3
====> Train Loss = -67.97263612874349 Epoch = 4
====> Train Loss = -67.97317191975911 Epoch = 5
====> Train Loss = -67.97310888671875 Epoch = 6
