
Training GMVAE
Training --> GMIWVae(
  (_encoder): Encoder(
    (_net): Sequential(
      (0): Linear(in_features=784, out_features=392, bias=True)
      (1): ReLU()
      (2): Linear(in_features=392, out_features=196, bias=True)
      (3): Tanh()
      (4): Linear(in_features=196, out_features=196, bias=True)
      (5): ReLU()
      (6): Linear(in_features=196, out_features=98, bias=True)
    )
    (_fc_mean): Sequential(
      (0): Linear(in_features=98, out_features=20, bias=True)
    )
    (_fc_log_var): Sequential(
      (0): Linear(in_features=98, out_features=20, bias=True)
    )
  )
  (_decoder): Decoder(
    (_net): Sequential(
      (0): Linear(in_features=20, out_features=196, bias=True)
      (1): ReLU()
      (2): Linear(in_features=196, out_features=392, bias=True)
      (3): Tanh()
      (4): Linear(in_features=392, out_features=392, bias=True)
      (5): ReLU()
      (6): Linear(in_features=392, out_features=784, bias=True)
      (7): Sigmoid()
    )
  )
)
====> Train Loss = -0.036377279531148575 Epoch = 1
====> Train Loss = -1.900412102762858 Epoch = 2
====> Train Loss = -3.1591596638997395 Epoch = 3
====> Train Loss = -3.1712698689778644 Epoch = 4
====> Train Loss = -3.182815087890625 Epoch = 5
====>  Test Loss = -3287.3532470703126
====> Train Loss = -3.190797900390625 Epoch = 6
…
