…
    reconstruction_loss = func.mse_loss(x_hat, x.view(-1, 784), reduction='sum')
  File "/home/joy/.venv/lib/python3.8/site-packages/torch/nn/functional.py", line 3111, in mse_loss
    expanded_input, expanded_target = torch.broadcast_tensors(input, target)
  File "/home/joy/.venv/lib/python3.8/site-packages/torch/functional.py", line 72, in broadcast_tensors
    return _VF.broadcast_tensors(tensors)  # type: ignore[attr-defined]
RuntimeError: The size of tensor a (12800) must match the size of tensor b (128) at non-singleton dimension 0
Training --> GMIWVae(
  (_encoder): Encoder(
    (_net): Sequential(
      (0): Linear(in_features=784, out_features=392, bias=True)
      (1): ReLU()
      (2): Linear(in_features=392, out_features=196, bias=True)
      (3): Tanh()
      (4): Linear(in_features=196, out_features=196, bias=True)
      (5): ReLU()
      (6): Linear(in_features=196, out_features=98, bias=True)
    )
    (_fc_mean): Sequential(
      (0): Linear(in_features=98, out_features=20, bias=True)
    )
    (_fc_log_var): Sequential(
      (0): Linear(in_features=98, out_features=20, bias=True)
    )
  )
  (_decoder): Decoder(
    (_net): Sequential(
      (0): Linear(in_features=20, out_features=196, bias=True)
      (1): ReLU()
      (2): Linear(in_features=196, out_features=392, bias=True)
      (3): Tanh()
      (4): Linear(in_features=392, out_features=392, bias=True)
      (5): ReLU()
      (6): Linear(in_features=392, out_features=784, bias=True)
      (7): Sigmoid()
    )
  )
)
Python 3.8.10 (default, Sep 28 2021, 16:10:42)
Type 'copyright', 'credits' or 'license' for more information
IPython 7.27.0 -- An enhanced Interactive Python. Type '?' for help.
PyDev console: using IPython 7.27.0
Out[1]: torch.Size([12800, 784])
Out[2]: torch.Size([128, 28, 28])
