…
/home/joy/.venv/lib/python3.8/site-packages/torchvision/datasets/mnist.py:498: UserWarning: The given NumPy array is not writeable, and PyTorch does not support non-writeable tensors. This means you can write to the underlying (supposedly non-writeable) NumPy array using the tensor. You may want to copy the array to protect its data or make it writeable before converting it to a tensor. This type of warning will be suppressed for the rest of this program. (Triggered internally at  ../torch/csrc/utils/tensor_numpy.cpp:180.)
  return torch.from_numpy(parsed.astype(m[2], copy=False)).view(*s)
Training --> SimpleVae(
  (_encoder): Encoder(
    (_net): Sequential(
      (0): Linear(in_features=784, out_features=392, bias=True)
      (1): ReLU()
      (2): Linear(in_features=392, out_features=196, bias=True)
      (3): ReLU()
      (4): Linear(in_features=196, out_features=98, bias=True)
    )
    (_fc_mean): Sequential(
      (0): Linear(in_features=98, out_features=20, bias=True)
    )
    (_fc_log_var): Sequential(
      (0): Linear(in_features=98, out_features=20, bias=True)
    )
  )
  (_decoder): Decoder(
    (_net): Sequential(
      (0): Linear(in_features=20, out_features=196, bias=True)
      (1): ReLU()
      (2): Linear(in_features=196, out_features=392, bias=True)
      (3): ReLU()
      (4): Linear(in_features=392, out_features=784, bias=True)
      (5): Sigmoid()
    )
  )
)
Python 3.8.10 (default, Sep 28 2021, 16:10:42)
Type 'copyright', 'credits' or 'license' for more information
IPython 7.27.0 -- An enhanced Interactive Python. Type '?' for help.
PyDev console: using IPython 7.27.0
Out[1]: tensor(4.1258, device='cuda:0', grad_fn=<MaxBackward1>)
Out[2]: tensor(-3.8030, device='cuda:0', grad_fn=<MinBackward1>)
Out[3]:
Sequential(
  (0): Linear(in_features=20, out_features=196, bias=True)
  (1): ReLU()
  (2): Linear(in_features=196, out_features=392, bias=True)
  (3): ReLU()
  (4): Linear(in_features=392, out_features=784, bias=True)
  (5): Sigmoid()
)
Traceback (most recent call last):
  File "/home/joy/.venv/lib/python3.8/site-packages/IPython/core/interactiveshell.py", line 3441, in run_code
    exec(code_obj, self.user_global_ns, self.user_ns)
  File "<ipython-input-4-c2bab6a25b72>", line 1, in <module>
    self._net()
  File "/home/joy/.venv/lib/python3.8/site-packages/torch/nn/modules/module.py", line 1051, in _call_impl
…
