
Training GMVAE
Training --> GMIWVae(
  (_encoder): Encoder(
    (_net): Sequential(
      (0): Linear(in_features=784, out_features=392, bias=True)
      (1): ReLU()
      (2): Linear(in_features=392, out_features=196, bias=True)
      (3): Tanh()
      (4): Dropout(p=0.5, inplace=False)
      (5): Linear(in_features=196, out_features=196, bias=True)
      (6): ReLU()
      (7): Linear(in_features=196, out_features=98, bias=True)
    )
    (_fc_mean): Sequential(
      (0): Linear(in_features=98, out_features=20, bias=True)
    )
    (_fc_log_var): Sequential(
      (0): Linear(in_features=98, out_features=20, bias=True)
    )
  )
  (_decoder): Decoder(
    (_net): Sequential(
      (0): Linear(in_features=20, out_features=196, bias=True)
      (1): ReLU()
      (2): Linear(in_features=196, out_features=392, bias=True)
      (3): Tanh()
      (4): Linear(in_features=392, out_features=196, bias=True)
      (5): ReLU()
      (6): Linear(in_features=196, out_features=784, bias=True)
      (7): Sigmoid()
    )
  )
)
====> Train Loss = -2.485132737150084e+16 Epoch = 1
====> Train Loss = -6.181063842418673e+17 Epoch = 2
====> Train Loss = -5.482900528845901e+17 Epoch = 3
====> Train Loss = -1.1130422976186548e+18 Epoch = 4
====> Train Loss = -6.661671446268645e+17 Epoch = 5
====> Train Loss = -7.064042857507535e+17 Epoch = 6
====> Train Loss = -7.617439861014575e+17 Epoch = 7
…
