
Training GMVAE
Training --> GMIWVae(
  (_encoder): Encoder(
    (_net): Sequential(
      (0): Linear(in_features=784, out_features=392, bias=True)
      (1): ReLU()
      (2): Linear(in_features=392, out_features=196, bias=True)
      (3): Tanh()
      (4): Dropout(p=0.5, inplace=False)
      (5): Linear(in_features=196, out_features=196, bias=True)
      (6): ReLU()
      (7): Linear(in_features=196, out_features=98, bias=True)
    )
    (_fc_mean): Sequential(
      (0): Linear(in_features=98, out_features=8, bias=True)
    )
    (_fc_log_var): Sequential(
      (0): Linear(in_features=98, out_features=8, bias=True)
    )
  )
  (_decoder): Decoder(
    (_net): Sequential(
      (0): Linear(in_features=8, out_features=196, bias=True)
      (1): ReLU()
      (2): Linear(in_features=196, out_features=392, bias=True)
      (3): Tanh()
      (4): Linear(in_features=392, out_features=196, bias=True)
      (5): ReLU()
      (6): Linear(in_features=196, out_features=784, bias=True)
      (7): Sigmoid()
    )
  )
)
====> Train Loss = 0.0015239586470027764 Epoch = 1
====> Train Loss = 0.0011954508149375517 Epoch = 2
Traceback (most recent call last):
  File "/home/joy/projects/music-controllable-diffusion/models/gmiw_vae/gmiw_vae.py", line 144, in <module>
    model.fit(epoch, _optimizer)
  File "/home/joy/projects/music-controllable-diffusion/models/base/base_model.py", line 103, in fit
…
