
Training GMVAE
Training --> GMIWVae(
  (_encoder): Encoder(
    (_net): Sequential(
      (0): Linear(in_features=784, out_features=392, bias=True)
      (1): ReLU()
      (2): Linear(in_features=392, out_features=196, bias=True)
      (3): Tanh()
      (4): Dropout(p=0.5, inplace=False)
      (5): Linear(in_features=196, out_features=196, bias=True)
      (6): ReLU()
      (7): Linear(in_features=196, out_features=98, bias=True)
    )
    (_fc_mean): Sequential(
      (0): Linear(in_features=98, out_features=8, bias=True)
    )
    (_fc_log_var): Sequential(
      (0): Linear(in_features=98, out_features=8, bias=True)
    )
  )
  (_decoder): Decoder(
    (_net): Sequential(
      (0): Linear(in_features=8, out_features=196, bias=True)
      (1): ReLU()
      (2): Linear(in_features=196, out_features=392, bias=True)
      (3): Tanh()
      (4): Linear(in_features=392, out_features=196, bias=True)
      (5): ReLU()
      (6): Linear(in_features=196, out_features=784, bias=True)
      (7): Sigmoid()
    )
  )
)
====> Train Loss = 2.842376879416406e-05 Epoch = 1
====> Train Loss = 4.35659009963274e-06 Epoch = 2
====> Train Loss = 2.883459225995466e-06 Epoch = 3
====> Train Loss = 3.003336132193605e-06 Epoch = 4
====> Train Loss = 2.0821291429456322e-06 Epoch = 5
====> Train Loss = 2.1449660445796326e-06 Epoch = 6
====> Train Loss = 1.8615057915061092e-06 Epoch = 7
…
